parseur_ae_nn/modelparameters/model.pt (torch_old, 5977 bytes, 6 tensors)

weight f4 [6, 42]
0.23924649 0.09663917 0.4594005 0.34191835 -0.17942677 -0.16370592 -0.437043 -0.6430779
0.506768 0.052976355 -0.020873591 0.065246 -0.0111299455 0.29989123 -0.09644619 -0.10292309
-0.8462591 -0.82427615 -0.23800845 -0.26881728 -0.01812616 -0.80434704 -0.05288423 -0.13279533
-0.010508388 -0.06118516 -0.116521254 -0.13404524 0.061602086 0.14870961 -0.17324933 -0.26742724
0.00034485757 0.08111459 -0.15266113 -0.50481653 -0.39779857 -0.0087097585 -0.008570254 -0.14354959
0.15187718 -0.09049106 0.048169855 -0.14224207 0.46720555 0.34847397 0.23148468 0.25607753
0.35617396 0.5217688 0.23070723 0.121410385 -0.15117347 0.1468858 -0.08529811 0.20131715
0.009103149 0.11015876 0.46660277 0.6032529 0.43834212 0.36978367 -0.028106019 0.40300792
0.3925017 -0.0138558 0.0775543 0.09723981 -0.06916303 -0.019038916 0.12592028 0.077950075
0.11933531 0.162286 0.08362357 0.10207905 -0.115772605 0.32807165 0.36915717 0.06270081
-0.054998666 -0.051139556 0.024641529 0.05682136 0.48193502 -0.050660588 -0.20465684 -0.20476748
0.014886997 0.014860242 -0.19733073 -0.33759266 0.3110775 0.011916667 -0.008604988 0.05458188
-0.05058208 0.24169067 -0.09756011 0.09443082 -0.16437382 -0.16439466 -0.38388872 -0.3838913
-0.12076889 -0.26905185 -0.48125273 0.15014149 0.028892696 0.04406713 0.094089 -0.061376847
-0.08014458 -0.13889784 0.38324633 0.41101477 0.1033624 0.106652215 -0.07704615 -0.21676028
-0.20573041 0.08129722 0.08278011 -0.062195934 0.015477523 0.14760338 -0.4652567 0.10491504
-0.033340283 -0.23860425 0.36560345 0.38942382 0.5383065 0.63751674 -0.3143112 -0.10662752
-0.07991027 -0.082732245 -0.0776699 -0.094248936 0.029876396 -0.14199795 0.70974946 0.8171845
0.43005413 0.37924227 0.06003408 0.72719187 0.21900922 -0.1437983 -0.09008702 0.055510566
0.14615618 0.02241233 -0.035510987 -0.036073357 0.40654325 0.33213967 -0.10712001 0.13706179
-0.07174216 0.46078426 0.34468588 0.041981936 -0.10117318 -0.118504554 0.15208934 0.026773244
-0.32575694 0.033591837 -0.08952398 0.04896776 0.60123813 0.6061793 0.5175084 0.4308572
-0.38934475 0.056594834 0.037121832 0.1180761 0.13233982 -0.016336167 0.108413294 0.11029948
0.93821114 0.8457827 0.41248637 0.4556451 0.09539673 0.5815001 0.2879701 0.021563053
-0.008695528 0.14795993 0.068542436 -0.03252828 0.08330104 -0.07382489 0.28245592 0.33647802
-0.094596 -0.039076753 -0.04083103 0.57205683 0.4435411 0.07205808 -0.018281162 -0.06267472
-0.053293012 0.09860115 0.4980879 -0.021005884 0.2745361 0.30995765 -0.4017063 -0.39100665
-0.30902332 -0.5674219 0.5040967 0.036098704 -0.1501181 -0.13599809 -0.12531461 0.3770812
-0.11640851 -0.11217527 -0.70065403 -0.7103855 -0.12746216 -0.1067332 -0.08350817 -0.53482455
0.19178583 0.09149934 -0.06904503 0.048056155 -0.08759758 0.056341678 -0.046632126 -0.0154232085
-0.12659325 -0.061377782 -0.0017142594 -0.13789111 -0.15046054 -0.25197113 -0.44472343 -0.07326996
-0.09162569 0.1508926 0.10182355 0.12464817
00000000: 08fd 743e c2ea c53d 8b36 eb3e ec0f af3e
00000010: a7bb 37be 86a2 27be 1ac4 dfbe c1a0 24bf
00000020: 8cbb 013f bcfd 583d 18ff aabc b29f 853d
00000030: 605a 36bc 588b 993e 9485 c5bd 57c9 d2bd
00000040: 70a4 58bf c303 53bf 7db8 73be 6ba2 89be
00000050: 507d 94bc b0e9 4dbf 229d 58bd 80fb 07be
00000060: 602b 2cbc 4a9d 7abd b2a2 eebd 2843 09be
00000070: 7852 7c3d 5547 183e 4668 31be 39ec 88be
00000080: 00ce b439 681f a63d 3353 1cbe a83b 01bf
00000090: 41ac cbbe 60b3 0ebc 406a 0cbc aafe 12be
000000a0: b185 1b3e 6053 b9bd c14d 453d e8a7 11be
000000b0: 9135 ef3e 2e6b b23e 520a 6d3e 981c 833e
000000c0: 6f5c b63e a492 053f 843e 6c3e 02a6 f83d
000000d0: 38cd 1abe 3b69 163e c7b0 aebd 1526 4e3e
000000e0: 6025 153c ea9a e13d 8fe6 ee3e c86e 1a3f
000000f0: 616e e03e 4954 bd3e 983e e6bc 0e57 ce3e
00000100: fcf5 c83e 7003 63bc cad4 9e3d aa25 c73d
00000110: 59a5 8dbd 80f7 9bbc 3ff1 003e 4aa4 9f3d
00000120: 1266 f43d 4d2e 263e d642 ab3d d20e d13d
00000130: 301a edbd 02f9 a73e 2b02 bd3e 4869 803d
00000140: 4846 61bd b677 51bd 08dd c93c 84bd 683d
00000150: 30c0 f63e 7a81 4fbd 9091 51be 91ae 51be
00000160: 97e8 733c 5f78 733c 1111 4abe f2d8 acbe
00000170: 8d45 9f3e 203e 433c f0fb 0cbc 4091 5f3d
00000180: 282f 4fbd c27d 773e 98cd c7bd f264 c13d
00000190: 9c51 28be 1357 28be 108d c4be 678d c4be
000001a0: ae55 f7bd 2ac1 89be c266 f6be b1be 193e
000001b0: 60b0 ec3c bc7f 343d bcb1 c03d 4a66 7bbd
000001c0: d722 a4bd 3c3b 0ebe dd38 c43e 8770 d23e
000001d0: aaaf d33d 7a6c da3d 5fca 9dbd 68f6 5dbe
000001e0: feaa 52be 287f a63d 9e88 a93d 2ac1 7ebd
000001f0: 7095 7d3c 5725 173e 2036 eebe b2dd d63d
00000200: d28f 08bd ac54 74be 6030 bb3e 8f62 c73e
00000210: 74ce 093f 4c34 233f 66ed a0be 875f dabd
00000220: ffa7 a3bd 866f a9bd 6611 9fbd 9605 c1bd
00000230: 58bf f43c e967 11be 24b2 353f 0133 513f
00000240: 0e30 dc3e 0b2c c23e 4ce6 753d 3f29 3a3f
00000250: f443 603e dd3f 13be 8b7f b8bd 0c5f 633d
00000260: f7a9 153e 109a b73c f873 11bd a8c1 13bd
00000270: 7026 d03e 360e aa3e bc61 dbbd ed59 0c3e
00000280: 8eed 92bd eaeb eb3e ab7a b03e 40f5 2b3d
00000290: e233 cfbd 84b2 f2bd 4fbd 1b3e 9053 db3c
000002a0: 9dc9 a6be 9897 093d 5958 b7bd 6b92 483d
000002b0: beea 193f 912e 1b3f 6e7b 043f 5199 dc3e
000002c0: 3258 c7be fccf 673d 100d 183d e2d1 f13d
000002d0: 1784 073e 6dd3 85bc ca07 de3d b2e4 e13d
000002e0: 9b2e 703f 3785 583f 6a31 d33e 514a e93e
000002f0: 5c5f c33d 31dd 143f d170 933e 00a5 b03c
00000300: b077 0ebc cf82 173e fa5f 8c3d 603c 05bd
00000310: bc99 aa3d 8131 97bd 109e 903e d946 ac3e
00000320: 8cbb c1bd f20e 20bd 703e 27bd 5172 123f
00000330: d217 e33e 3093 933d 60c2 95bc 9b5b 80bd
00000340: c649 5abd 66ef c93d 6105 ff3e 8814 acbc
00000350: ff8f 8c3e c5b2 9e3e 73ac cdbe 0632 c8be
00000360: 4e38 9ebe 9042 11bf 7b0c 013f 3cdc 133d
00000370: 8fb8 19be 1543 0bbe 7952 00be c910 c13e
00000380: 9667 eebd 26bc e5bd 105e 33bf d3db 35bf
00000390: 7185 02be f096 dabd 5506 abbd 43ea 08bf
000003a0: 8163 443e 0264 bb3d 7b67 8dbd 88d6 443d
000003b0: 5c66 b3bd 88c6 663d 5401 3fbd a0b1 7cbc
000003c0: a9a1 01be 4567 7bbd 00b1 e0ba 5433 0dbe
000003d0: 5412 1abe 5c02 81be cab2 e3be 900e 96bd
000003e0: 40a6 bbbd 9783 1a3e de88 d03d 8a47 ff3d

bias f4 [6]
0.24543121 0.48896512 0.5392037 -0.0045067933 0.123404376 0.29293993
00000000: 5252 7b3e a359 fa3e 4109 0a3f b9ad 93bb
00000010: 6fbb fc3d 39fc 953e

weight f4 [6, 6]
-0.9669911 0.47771645 -0.55533123 0.4624137 0.5491366 -0.66931176 0.895629 0.115610145
0.8752568 -0.66729355 -0.73091197 0.8549137 -0.33882734 1.0013056 -0.81732726 0.61170334
0.7709449 -0.28089842 0.26535043 0.27166703 0.35028923 -0.73113436 -0.67705315 0.91088027
0.96703494 0.34707123 0.71388227 -0.99437296 -0.90376526 0.70242214 0.8609985 -0.10812015
0.75786424 -0.32776707 -0.17041293 0.651223
00000000: bb8c 77bf 4097 f43e 302a 0ebf 7dc1 ec3e
00000010: 3794 0c3f 0458 2bbf f147 653f 03c5 ec3d
00000020: d410 603f c0d3 2abf 0c1d 3bbf a0db 5a3f
00000030: c77a adbe c82a 803f 5c3c 51bf 9798 1c3f
00000040: a55c 453f ebd1 8fbe 03dc 873e f117 8b3e
00000050: 1c59 b33e 9f2b 3bbf 5b53 2dbf 732f 693f
00000060: 9a8f 773f 52b3 b13e fdc0 363f 3a8f 7ebf
00000070: 295d 67bf f0d1 333f 666a 5c3f 196e ddbd
00000080: 6403 423f 16d1 a7be ba80 2ebe 8db6 263f

bias f4 [6]
0.7590953 0.38482606 0.54877967 0.23261522 0.44071752 0.1795164
00000000: 1254 423f ec07 c53e d37c 0c3f af32 6e3e
00000010: baa5 e13e 26d3 373e

weight f4 [2, 6]
0.88677925 -0.4556277 0.54243034 -0.9183358 -0.78631014 -0.9191443 -0.13912076 0.5046858
-0.54870254 0.51421267 0.21307427 0.5329393
00000000: f703 633f 0948 e9be b7dc 0a3f 0e18 6bbf
00000010: 9f4b 49bf 0a4d 6bbf ac75 0ebe 1733 013f
00000020: c577 0cbf 71a3 033f 2430 5a3e b66e 083f

bias f4 [2]
-0.06639182 -0.22082554
00000000: 6ff8 87bd 1720 62be
